_________________________________________________________________
Layer (type)                 Output Shape              Param #   
=================================================================
input_1 (InputLayer)         (None, 224, 224, 3)       0         
_________________________________________________________________
densenet201 (Model)          (None, 1, 1, 1920)        18321984  
_________________________________________________________________
reshape_1 (Reshape)          (None, 1920)              0         
_________________________________________________________________
dropout_classifier (Dropout) (None, 1920)              0         
_________________________________________________________________
fc1 (Dense)                  (None, 512)               983552    
_________________________________________________________________
dropout_fc1 (Dropout)        (None, 512)               0         
_________________________________________________________________
fc2 (Dense)                  (None, 128)               65664     
_________________________________________________________________
dropout_fc2 (Dropout)        (None, 128)               0         
_________________________________________________________________
predictions (Dense)          (None, 2)                 258       
=================================================================
Total params: 19,371,458
Trainable params: 19,142,402
Non-trainable params: 229,056
_________________________________________________________________
Training set distribution:
               healthy:  1332 (43.7%)
          pathological:  1715 (56.3%)
Test set distribution:
               healthy:   731 (59.1%)
          pathological:   505 (40.9%)
…
